models/Circle_5000.pth (torch, 7883 bytes, 7 tensors)

fc_stack_1.0.bias f4 [32]
00000000: 30d3 2d3f 4846 e13e 3073 ad3d f221 1b3f
00000010: 9de5 0f3f 2920 06bf 976c 8cbe e368 923e
00000020: e617 b0be 847f 0a3f 4859 1c3f 8fe2 1b3f
00000030: e6bc f43e bb2f a8be 6381 f9be f3a6 83be
00000040: c7f4 563e ead0 c0be 4d04 ca3e ea1c 91be
00000050: de1a 993d 01f8 ef3e be13 853e 0e22 56ba
00000060: b6f8 443d 6aaf 363f cde3 f13e ea58 ffbe
00000070: 9556 edbd db69 efbb a594 f23e 3598 30bf
0.6790037 0.43998933 0.08469236 0.6059867 0.5620974 -0.5239282 -0.27426597 0.28595647
-0.34393233 0.54100823 0.6107373 0.60892576 0.47800368 -0.32848915 -0.48731527 -0.2571331
0.20991813 -0.3765939 0.39456406 -0.28342372 0.07475828 0.468689 0.25991625 -0.00081685267
0.04808875 0.7136141 0.4724411 -0.49872524 -0.1158878 -0.00730632 0.47379032 -0.6898225

fc_stack_1.0.weight_g f4 [32, 1]
00000000: bdc3 983e be88 203a 3a82 2a3f 69a7 453f
00000010: 22bd 283f 8877 213f aa01 ca3e 3843 063f
00000020: 62d5 263f 6970 1c3f af0a 373f 68bf 843f
00000030: 8570 483f 45be e53d 15f2 2b3f f14f 403f
00000040: 0f01 813e a6f7 253f f88a e43b f7d3 0a3f
00000050: 1f2c 3a3f b029 213e 0650 f73e 183f 523f
00000060: c53c 413f af2d 1f3f 7eaa 8b3e eea8 363f
00000070: 6ccf fb3e cb5d 5c3e 5c6f 383f 57c6 113f
0.29836836 0.0006123892 0.6660496 0.7720857 0.65913594 0.63073015 0.39454395 0.5244632
0.65169346 0.61109024 0.71500677 1.0370913 0.7829669 0.11217932 0.6716626 0.7512198
0.2519612 0.64831007 0.006974574 0.5422968 0.72723573 0.15738559 0.4830324 0.82127523
0.7548335 0.6217908 0.27278513 0.71351516 0.49181688 0.21520154 0.7204492 0.5694327

fc_stack_1.0.weight_v f4 [32, 2]
00000000: 2ea2 9c3e 22a4 5a3e 163e b13d 0d5b 8cbd
00000010: 221c 183f 9b5b 52bd fd87 2b3f 4a7d cd3e
00000020: 8e47 d93e 2cbf c8be 58f4 4ebe 05f4 18bf
00000030: ea58 8c3e 4d4a 91be 920b b53d 7f0a 133f
00000040: 665a 063f 9d34 d93c b616 14bf 8e50 99bd
00000050: d9ef da3e 6668 fa3e ff6e 303e c072 31bf
00000060: bc2c aabe 8660 9c3e d050 e5bd 8028 e03b
00000070: a6ab 93be e966 1b3f 927f 0f3f 8c0d 2fbe
00000080: d5ee 51bd 833a e1bd be4f 043f ca31 cfbe
00000090: 7de0 033e 07d8 1fbe 4c79 d93d 620b fa3e
000000a0: 4ff7 1e3f 5c3d ae3d 9a65 1ebd 856a 803d
000000b0: 41b4 4f3e 8da2 c6be cf4e a83d 4aa1 4e3f
000000c0: a2b6 083f 4cfc c1bd 4afd 8abe e0a2 e4be
000000d0: fc87 403e 1f13 c53d dc04 6e3e c752 283f
000000e0: f6e1 753e 84fc 683e 4652 a03c 44a0 71be
000000f0: ff11 273f 5604 513e c5ac 103f e0fc 8e3d
0.30592483 0.21351674 0.0865442 -0.06853304 0.5941793 -0.051356893 0.67004377 0.4013465
0.42437404 -0.39208353 -0.20210397 -0.59747344 0.27411586 -0.28377 0.088400975 0.5743789
0.5248169 0.026514346 -0.57847154 -0.07486068 0.42761114 0.48907775 0.17229842 -0.6931572
-0.33237255 0.30542392 -0.111970544 0.0068407655 -0.28841895 0.60703903 0.5605403 -0.17095011
-0.05125316 -0.10997488 0.51684177 -0.40467674 0.12878604 -0.15609752 0.10618839 0.4883681
0.6209611 0.08507797 -0.038671114 0.06270317 0.20283605 -0.3879589 0.082181565 0.8071486
0.53403676 -0.0947195 -0.2714637 -0.44655514 0.18801874 0.09622788 0.23244041 0.6575131
0.24011979 0.22752577 0.019570481 -0.23596293 0.65261835 0.2041181 0.56513625 0.06981826

fc_stack_1.3.bias f4 [32]
00000000: aee7 78bd d18a 043e 7847 9dbd 40bd c4bb
00000010: a09b 10be 04bb 623d f225 dfbd 53af 1a3e
00000020: 0c64 19be 612b 12be 7026 b53c 1e7a c13d
00000030: b1d8 963d ec8a 1ebd 23a2 223e 9382 a3bd
00000040: e7e5 22be 5e7f 9d3d 0045 4abb 9ce0 c33d
00000050: 7de4 dd3d 437b acba 4930 a93b 69ad f83d
00000060: d585 bbbd c3e0 013e 012c dd3d a911 af3c
00000070: ca31 5abd 2ed7 afbd 3ffb 9dbd 2030 e03b
-0.060767822 0.1294358 -0.07679647 -0.0060040057 -0.14121866 0.055354133 -0.10895909 0.15105943
-0.14979571 -0.1427436 0.022113055 0.0944712 0.07365549 -0.038706705 0.15882163 -0.079838894
-0.15908013 0.07690309 -0.003086388 0.09564325 0.10834596 -0.0013159293 0.0051632267 0.1214245
-0.09156386 0.12683396 0.10799409 0.021370726 -0.05327014 -0.08585964 -0.07713937 0.0068416744

fc_stack_1.3.weight_g f4 [32, 1]
00000000: ca07 1d3f 3873 153f 0771 2e3f 1dd7 053f
00000010: c7b8 f93e 143b 113f 6ade 3d3f 8ef0 163f
00000020: f5cf 113f 6c5e 1b3f 85ff 1e3f 3f4d 203f
00000030: de2d 163f 2705 253f fffe 683f 16ed 313f
00000040: eb89 153f 7983 213f 03b6 123f a5de 7a3f
00000050: d9fa 173f 31cd 503f 6b97 293f eeb9 253f
00000060: 6207 3f3f d8fa 0f3f a803 2d3f 236a 1e3f
00000070: 6756 113f 64fb 1a3f 4e8d 553f 517c 1a3f
0.6134001 0.58378935 0.68141216 0.5228136 0.48773786 0.5673077 0.741675 0.5896081
0.5695794 0.6069095 0.6210864 0.6261787 0.5866374 0.64460987 0.91014093 0.6950239
0.5841357 0.63091236 0.5730898 0.9799598 0.5936714 0.815631 0.6624667 0.6473683
0.7462064 0.5624213 0.67583704 0.618807 0.56772465 0.6053984 0.8341874 0.6034594

fc_stack_1.3.weight_v f4 [32, 32]
00000000: 6dcd 283e 1935 0d3e bf2d c6bc 7823 51bd
00000010: 3805 013d bd16 709f 4dd7 03be e09c b13d
00000020: 9a5d 1fbe 171f 0fbe 6dc3 163d 369e f4bd
00000030: 6e89 5d3d dbf6 873d 4098 8c3d c400 70bd
00000040: 1c40 fabd 8e26 55ab 2d6c 7bbd c442 10be
00000050: 8ff3 633e dda9 e0bc 3d70 00be 439e cb3d
00000060: 5c79 8ebd 3904 9ebc 1de7 b33d 58df 96bd
00000070: 2a30 c03c d762 b1bc 5184 293e b086 acbd
00000080: 9d4b 9e3c 9792 d93d 4156 be3a 9c95 c0bb
00000090: cd3e 023c 672f 2bbd a566 d53d de5e 6a3c
000000a0: 087a 003e 6cbe 0b3d 4352 8e3d b646 52bd
000000b0: 3e31 d83d e02d e03d c3ba c027 4ea8 093e
000000c0: 2c6f a73e 4009 788b 6d48 cebd fddd 2f3e
000000d0: bafb 09be be8f b6bd ae7c 183b bf06 3bbe
000000e0: 61e2 0ebd 2c7b d23c 4f37 183e 4cfe db3d
000000f0: 0322 10be fb53 4420 fbb4 f23b a089 493d
00000100: a722 13be 7342 8abd c469 5c3e d4cb 7839
00000110: 3421 76bd 933d a53c 9948 1a3c d7d9 07bd
00000120: b1d8 0fbe cdf3 1a3d 9807 033e 8576 9abd
00000130: 7f60 093b 6af6 651c 67ff a3bd efd0 e7bd
00000140: 8188 7bbd 5c27 a8bd 3da3 57ba 8eff 5fbe
00000150: 3c7c b7bd eb17 113e b209 9abd 99bc 183e
00000160: dd2c 2b3d 82d8 02be d6ac 143e cc1f 02be
00000170: e229 833d e54e d9af 0701 293e c8c4 f9a8
00000180: 944c 443d acc7 4abd ad8c b2bd 2e4d 1fbe
00000190: dbc3 ddbd 959f 1dbe d58b 093e cca7 d4bd
000001a0: 4279 8b3d b064 f23c e8da e1bd bf1c 17be
000001b0: 4051 36bb b260 c93d 702f fbbd 1ebf fe3d
000001c0: d1d8 8bbd 28fe 6b3d 321a e43d 16e6 d93d
000001d0: 6aa9 983d 0a87 d4bd 90d8 323c c0de 583b
000001e0: dcc2 3b3d 2535 a2bd b4f9 a5bd 5d2e 07be
000001f0: 90f6 893c e4f4 1b3d 3e7e c03d e497 2d3d
00000200: eeef 973d b91f 73bd ba5d db3b f71a 3d3a
00000210: bee8 993b 5a1d abbc 685c 3c3c 981e a53d
00000220: d007 a63d fe34 3d3e aad7 89bd 4e46 693c
00000230: 70ca be3b be60 a8bd fda7 3b00 f01e 323c
00000240: 74aa 3e3e e4ae d63d 4f76 633d 17a4 4b3e
00000250: 57b6 563c 56cd e63d 651e 3e3d 1d58 bdbd
00000260: a90c 02bb 3c5f db3d 1c53 a13d fbe2 023d
00000270: 19eb 32be e804 5f3d c678 8d3c 11a3 be3d
00000280: 485e a13d a30c 183e f8dd eebd ed28 bb3d
00000290: 3076 a93d d695 b43d 1df4 8cbd 3cf0 103d
000002a0: 6c8a 323e fe8f 003e 4bab 0a3e f61c ec3d
000002b0: 6488 2e3c adaa 6c3d 9a53 dfbd 95d5 153e
000002c0: 0bbe 0dbe 6ec1 d1bd 4ef6 2dbd 7fc3 b8bd
000002d0: dccb 18be d16e 0fbe 1b5f 73bd d6b6 243c
000002e0: 5b47 8dbd b470 903e e4a6 133c 0936 233e
000002f0: a8f4 eabc 0bd8 06be 2f04 963d 5cdc f33d
00000300: 21fd 96bc e5fd c23c d819 333e 2cb6 383e
00000310: f6b8 2f3e d225 cba5 ecf7 70a5 af15 0a3e
00000320: dc23 26be fdb7 17be 4821 0bbe 0586 1cbe
00000330: bef7 1fbe b7c2 19a1 d6f6 97bd 3b25 fcbd
00000340: bb44 8abd b6c5 471e b69a bb3d de69 b6bd
00000350: 4325 053d d6e7 b53c 461f f1bd 9b09 243e
00000360: eb9f 543e 2f6e 783c 1a66 1a3e fa55 31be
00000370: f335 b43d f18f 0680 7c43 07bd 413d 933d
00000380: 931f 2cbe aa1d 7fbd a798 12be 4829 42bd
00000390: acb2 24bd e323 0ebe 1054 673d 04bf 21bd
000003a0: 390f 2fbe 207c 8dbb 41ec fcbd 2a8f 68bd
000003b0: cecd efbd 9a5a ce3d 387e 45bd 3137 08be
000003c0: d855 c6bc 2f5f 2e3e 7f6f 233e 427f fd3d
000003d0: 2019 893b 21be a9bd d03a bdbd 503d 03bd
000003e0: f251 b1bd ef72 2c3e 2f49 103e 91f3 b9bd
000003f0: d480 6b3d ef4f 143e 00a0 a7b9 c067 af3c
0.16484614 0.13789786 -0.024191735 -0.051059216 0.031499118 -5.0840786e-20 -0.128751 0.086725
-0.1556305 -0.13976704 0.036807466 -0.11944239 0.05408614 0.06638881 0.06864977 -0.05859448
-0.12219259 -7.5726307e-13 -0.06138246 -0.14087969 0.22260879 -0.027424747 -0.12542816 0.099422954
-0.06956741 -0.019289123 0.08784316 -0.07366818 0.023460466 -0.021653576 0.16554381 -0.08424127
0.019323165 0.10623663 0.0014521555 -0.00587721 0.007949543 -0.041793253 0.104199685 0.014304845
0.12546551 0.034117147 0.06949284 -0.051336966 0.10556267 0.1094625 5.3493193e-15 0.1344311
0.32702005 -4.7770022e-32 -0.10072408 0.17174526 -0.13474932 -0.089141354 0.0023267674 -0.18264292
-0.03488386 0.025693499 0.14864849 0.10741863 -0.14075474 1.6629633e-19 0.0074068285 0.049203515
-0.14368688 -0.067509554 0.21524721 0.00023727055 -0.06009026 0.020170962 0.009416723 -0.033166733
-0.14047505 0.037830163 0.12795866 -0.07542137 0.0020962057 7.6088227e-22 -0.080076985 -0.11319148
-0.061409477 -0.08210632 -0.00082259235 -0.2187483 -0.08959243 0.1416928 -0.075213805 0.14915694
0.04179083 -0.12777904 0.14519057 -0.12707442 0.06404473 -3.9528128e-10 0.16504298 -2.7729894e-14
0.047924593 -0.04950683 -0.08718238 -0.15556785 -0.10828372 -0.15392907 0.13432248 -0.10383567
0.068102375 0.029589027 -0.11028081 -0.1475706 -0.0027819425 0.09832896 -0.12264907 0.124387965
-0.06828464 0.05761543 0.11137809 0.106395885 0.07454188 -0.10377319 0.01091589 0.0033091754
0.04584013 -0.07920293 -0.08104268 -0.1320128 0.016841203 0.038075343 0.09399079 0.042381182
0.0741881 -0.059356425 0.0066945227 0.0007213796 0.0046969345 -0.02088802 0.011496641 0.08062476
0.08106959 0.18477246 -0.06730588 0.014237953 0.0058224723 -0.08221577 5.478557e-39 0.010871634
0.1861971 0.104825765 0.05553275 0.19886814 0.013104997 0.112696335 0.046415705 -0.09245322
-0.0019843972 0.10711524 0.0787718 0.031954747 -0.17472495 0.05444804 0.017269503 0.09308446
0.07879311 0.1484857 -0.11663431 0.09138665 0.082744956 0.088176414 -0.068824984 0.035385355
0.17435616 0.12554929 0.13541906 0.11528961 0.010652635 0.057779957 -0.109046176 0.14632256
-0.13842027 -0.10241972 -0.042471223 -0.09021663 -0.14921516 -0.14007117 -0.05941687 0.010053357
-0.068983756 0.28210986 0.009011958 0.15938582 -0.028681114 -0.13168351 0.07325017 0.119072646
-0.018431248 0.023802707 0.17490327 0.18038243 0.17160401 -3.5240515e-16 -2.0900681e-16 0.13484834
-0.16224617 -0.1481628 -0.13586915 -0.152855 -0.1562185 -5.209612e-19 -0.07420127 -0.12311789
-0.067513905 1.0575858e-20 0.09160368 -0.08906911 0.03250624 0.022205275 -0.11773543 0.16019289
0.20764129 0.015162989 0.15078011 -0.17317954 0.087993525 -6.0265e-40 -0.033023342 0.07189418
-0.1680892 -0.06228415 -0.14316045 -0.04740265 -0.040209457 -0.13880877 0.056476653 -0.039488807
-0.1709565 -0.0043177754 -0.12349749 -0.056777157 -0.11709176 0.100758746 -0.048216075 -0.13302304
-0.024210855 0.17028497 0.15960501 0.12377788 0.0041839033 -0.08288217 -0.09239733 -0.032040894
-0.08658208 0.16840719 0.14090417 -0.0907966 0.057495907 0.14483617 -0.00031971931 0.021411777

fc_stack_1.6.weight_v f4 [1, 32]
00000000: 87c2 1ebd 3d2c 933d fe49 efbd dae4 0780
00000010: da13 3a3d 14e5 eb3d b190 e2bd 032d acac
00000020: d41e e823 234e 7902 92a6 f6ad d5bf 3431
00000030: bac9 f9af 6d01 cfbd 0bbc 653e 9b9a 393e
00000040: 0ed1 a92f 58b0 aa90 4fb7 c1aa 36c2 3a3e
00000050: 8ee1 330a 6df6 5a3e 86a8 06be c399 cf3d
00000060: b72f 533e f7bc 499c b1f2 0cbe 577d 703d
00000070: 426d 958e 5482 8e3d 7fd0 413e ea48 9d10
-0.038759734 0.07186172 -0.11684035 -7.24945e-40 0.04542909 0.115183026 -0.11062754 -4.8935313e-12
2.5166547e-17 1.8316055e-37 -2.8040934e-11 2.6302491e-09 -4.5436171e-10 -0.10107694 0.22435014 0.18125384
3.0889463e-10 -6.732488e-29 -3.4410883e-13 0.18238148 8.6609586e-33 0.21383066 -0.13150224 0.101367496
0.2062367 -6.6749553e-22 -0.13764454 0.058713283 -3.6836547e-30 0.06958452 0.18927191 6.203792e-29
