models/Circle_100.pth (torch, 7883 bytes, 7 tensors)

fc_stack_1.0.bias f4 [32]
00000000: f419 2c3f c628 d83e f32e b73d 5dc0 1d3f
00000010: 2b41 0d3f 2920 06bf 976c 8cbe 460e 903e
00000020: 34ce bebe d4a3 fb3e cb8c 1f3f d3bd 1c3f
00000030: 9b2f f63e bb2f a8be 6381 f9be bbbc a4be
00000040: 0342 443e ead0 c0be 0515 c53e b86d 9bbe
00000050: 197e af3d 62fc ee3e 20ff 743e a8c3 de39
00000060: f6da 013d 1a37 343f 5d18 f33e 5ec4 05bf
00000070: 2387 e2bd db69 efbb d046 fb3e 3598 30bf
0.672271 0.42218608 0.08944502 0.6162165 0.55177563 -0.5239282 -0.27426597 0.2813589
-0.37266695 0.49148428 0.6232421 0.6122715 0.48083195 -0.32848915 -0.48731527 -0.3217524
0.19165806 -0.3765939 0.384926 -0.30357146 0.08568973 0.46676928 0.23925447 0.00042488915
0.031702958 0.7039658 0.47479525 -0.5225276 -0.110609315 -0.00730632 0.49077463 -0.6898225

fc_stack_1.0.weight_g f4 [32, 1]
00000000: 9418 c83e 4aac ab3d 11b6 1a3f 9b7c 403f
00000010: ca50 133f 8877 213f aa01 ca3e 32b7 033f
00000020: d7ff 143f 8064 fd3e e03c 2e3f 39d1 423f
00000030: 9c6c 003f 45be e53d 15f2 2b3f cd0c 2a3f
00000040: 3f8b 2e3e a6f7 253f 2210 093e c1df e83e
00000050: 3db9 2a3f c094 bf3d c057 cc3e e92a 383f
00000060: c2ad 213f 9f67 0f3f af1c 703e 126a 283f
00000070: 6174 bb3e cb5d 5c3e 2e68 273f 57c6 113f
0.39081252 0.08382471 0.6043406 0.7519013 0.5754515 0.63073015 0.39454395 0.5145141
0.5820288 0.49490738 0.6806164 0.761005 0.50165725 0.11217932 0.6716626 0.6642578
0.17045306 0.64831007 0.1338506 0.4548321 0.666889 0.09354544 0.39910698 0.71940476
0.6315576 0.5601749 0.23448442 0.6578685 0.36612228 0.21520154 0.6539334 0.5694327

fc_stack_1.0.weight_v f4 [32, 2]
00000000: 4f74 c63e e1bc 073e c647 943d 5079 9f3d
00000010: 6522 133f 7931 90bd efd7 163f d5ed f63e
00000020: f331 e73e a6d2 babe 58f4 4ebe 05f4 18bf
00000030: ea58 8c3e 4d4a 91be 4adf f43d fb02 0b3f
00000040: 0451 0d3f 0c84 73bb 282f 0fbf a3cf c4bd
00000050: 778f 033f 40f2 ce3e 0041 333e a0b7 30bf
00000060: e7a5 bcbe e7ed 893e d050 e5bd 8028 e03b
00000070: a6ab 93be e966 1b3f 413c 1c3f ec08 f8bd
00000080: 0981 77bc 35c0 16be be4f 043f ca31 cfbe
00000090: 3518 1d3e a157 06be 2247 1c3e 5d8c e23e
000000a0: 47c1 223f 048f 903d c325 97bc 9b28 a83d
000000b0: 3fe1 4a3e 850e c9be 11a9 223e b55f 3b3f
000000c0: e4b4 103f 8f1c 83bd 4d16 89be 6a7a e6be
000000d0: ec00 0f3e d540 153e 79ec a93e ffed 0e3f
000000e0: b324 883e 0473 4e3e 4652 a03c 44a0 71be
000000f0: 8525 1b3f 2fa4 803e c5ac 103f e0fc 8e3d
0.3876061 0.13255645 0.07240252 0.077868104 0.57474357 -0.07040686 0.5892324 0.48228326
0.45155296 -0.36488837 -0.20210397 -0.59747344 0.27411586 -0.28377 0.119566515 0.5430142
0.55201745 -0.0037157563 -0.5593133 -0.09609916 0.51390785 0.40419197 0.17505264 -0.6903019
-0.36845323 0.26939318 -0.111970544 0.0068407655 -0.28841895 0.60703903 0.6102944 -0.12111077
-0.015106448 -0.14721759 0.51684177 -0.40467674 0.15341265 -0.13119365 0.1526151 0.44247714
0.6357617 0.07058528 -0.018450623 0.0821087 0.19812487 -0.3926889 0.15884806 0.7319291
0.5652602 -0.064019315 -0.26774827 -0.4501527 0.13965195 0.14575513 0.33188227 0.55831903
0.265905 0.20161062 0.019570481 -0.23596293 0.60604125 0.25125262 0.56513625 0.06981826

fc_stack_1.3.bias f4 [32]
00000000: ac83 7bbd 422c 063e 1fcd 9fbd 40bd c4bb
00000010: 4094 11be 3bdb 683d ea38 e9bd 53af 1a3e
00000020: 0c64 19be 612b 12be 7026 b53c 1e7a c13d
00000030: 9ee0 963d 730f 23bd 0952 0f3e 9f27 8dbd
00000040: e7e5 22be 5e7f 9d3d 0045 4abb b75c b43d
00000050: 7de4 dd3d db09 a43b ed6a 833b 90c3 fb3d
00000060: 16d1 cbbd c3e0 013e 74cb da3d c5bc bc3c
00000070: ca31 5abd d0a7 acbd 6d44 64bd 2030 e03b
-0.06140487 0.1310282 -0.078027956 -0.0060040057 -0.14216709 0.0568497 -0.113878086 0.15105943
-0.14979571 -0.1427436 0.022113055 0.0944712 0.07367061 -0.039809655 0.13996138 -0.06892323
-0.15908013 0.07690309 -0.003086388 0.088067465 0.10834596 0.0050060577 0.0040105493 0.1229316
-0.09951989 0.12683396 0.10683337 0.023039231 -0.05327014 -0.08430445 -0.05572932 0.0068416744

fc_stack_1.3.weight_g f4 [32, 1]
00000000: d146 143f 543b 083f 2aaa 1f3f 1dd7 053f
00000010: 9a25 eb3e 8f2e 113f f502 313f 8ef0 163f
00000020: f5cf 113f 6c5e 1b3f 85ff 1e3f 3f4d 203f
00000030: b62d 163f b0db 133f 34a6 0d3f 73dd 0f3f
00000040: eb89 153f 7983 213f 03b6 123f d355 483f
00000050: d9fa 173f d998 143f 9d56 1a3f 11d4 173f
00000060: e778 193f d8fa 0f3f 0a6a 1e3f c238 163f
00000070: 6756 113f b5da 0f3f 56cd 253f 517c 1a3f
0.5792056 0.5321553 0.62369025 0.5228136 0.45927125 0.5671167 0.6914514 0.5896081
0.5695794 0.6069095 0.6210864 0.6261787 0.586635 0.5775709 0.5533173 0.5619728
0.5841357 0.63091236 0.5730898 0.7825596 0.5936714 0.58045727 0.6028841 0.5930796
0.5995011 0.5624213 0.6188055 0.58680356 0.56772465 0.56193095 0.6476644 0.6034594

fc_stack_1.3.weight_v f4 [32, 32]
00000000: 178d 263e fc7f 203e 47e3 5abd 2694 87bd
00000010: 112b d13c b55e 6fbc bdda 26be cc75 a03d
00000020: 4e93 febd 5127 04be 529b c53c 431f ebbd
00000030: ac40 8d3d 5e1d ce3d d2bb d23d 3d48 553d
00000040: 0077 d1bd 9631 083c 9eb2 90bd 63f8 c0bd
00000050: 8fd7 533e b379 02bd ab30 0fbe 6950 a43d
00000060: 344d d2bd 885b 373c bb36 ae3d a199 5bbd
00000070: bd27 99bc 06a2 66bd faf0 1e3e 8e9d f2bd
00000080: d22e fb3c 2cc6 f13d b2d4 033d 1da3 0f3c
00000090: 8ca0 8c3c ee0a bdbd 12eb 1e3e 534b ef3c
000000a0: 45cd 3ebd e19e d1bb 516b b03d 2d6e 9ebd
000000b0: a991 d83d 9f54 243e 94f9 413b a8e6 8a3c
000000c0: 6e23 333e c22a 733c 6005 d3bd 20ba acbc
000000d0: b1cc ecbd 8fc8 b9bd 469f 20bb 206b 2fbe
000000e0: 9fcf 98bb b343 89bb 40ba 2a3e 5182 2d3e
000000f0: a048 f7bd 71ae 4c3d ead4 c73c 7269 cc3d
00000100: 7219 22be bf50 9bbd ebb6 513e 2cdc 65bc
00000110: 9b9c 92bd 222f 9f3d 32f3 8a3d 1d76 45bd
00000120: f1fb 8bbd ba99 c53d 1fe7 f03d 74dd 7fbd
00000130: da05 0a3c 2c85 633d 93d3 0cbe a19f 2ebd
00000140: 050e ea3d 74e8 0ebe c747 aebb 0568 39be
00000150: e000 f9bd 6d43 1b3e 71b6 acbd f468 093e
00000160: 6376 403c a15e eabd 5786 143e da59 efbd
00000170: f170 ca3c 28e3 103d c539 1e3e 1064 38bd
00000180: 944c 443d acc7 4abd ad8c b2bd 2e4d 1fbe
00000190: dbc3 ddbd 959f 1dbe d58b 093e cca7 d4bd
000001a0: 4279 8b3d b064 f23c e8da e1bd bf1c 17be
000001b0: 4051 36bb b260 c93d 702f fbbd 1ebf fe3d
000001c0: d1d8 8bbd 28fe 6b3d 321a e43d 16e6 d93d
000001d0: 6aa9 983d 0a87 d4bd 90d8 323c c0de 583b
000001e0: dcc2 3b3d 2535 a2bd b4f9 a5bd 5d2e 07be
000001f0: 90f6 893c e4f4 1b3d 3e7e c03d e497 2d3d
00000200: 0715 b13d 8179 7dbd 522f 293d 7423 6a3c
00000210: a7f1 603c d1d2 4bbd 2cfd 273d bc4c ca3d
00000220: 171c 53bd c1cd 003e 7d41 6abd cf09 d5bc
00000230: f08b c3bb c882 e2bd e2d1 fbbc ed60 93bd
00000240: 7a34 f83d 7e61 083e 1f40 823d e9bb 033e
00000250: b7ce 3f3d bf12 fa3d 1762 613d aff1 a3bd
00000260: b3ab 153d 5df4 923d 488a bc3d ede2 aa3d
00000270: fe8b 28be 0cca a93d a0c5 0b3d 39bd f83d
00000280: 370a ba3d b060 203e 8566 c4bd a43e dd3d
00000290: bc1b c13d d408 b53d 9c8a 8dbd 8d61 4e3d
000002a0: e4b8 8b3d a7bc 683d e57c 1c3e cae9 ac3d
000002b0: c6a6 8c3b e814 6e3d 2bb0 dfbd 3c8a 083d
000002c0: b3a9 32be 7a24 d2bd 59cb 1ebd b8f8 20be
000002d0: a01c 04be 5679 0dbe 0b39 82bd 12f1 0d3d
000002e0: 5fb0 2cbd 6170 4a3e 152d 963c ab22 113e
000002f0: 980c 573c a8fc 06be 6c8b bc3d f530 f43d
00000300: 8a23 04bd dfd3 983c 5ddd 203e f852 2c3e
00000310: 39c1 313e 4cf4 79ba acdf 103d 72bb 003e
00000320: 540f f7bd 8edf 10be ba55 1fbe 63f1 1cbe
00000330: cd77 2abe 3b52 c93b 322f febd efe2 92bd
00000340: 1819 af3d e4fc 25bc af1c c13d 3078 603d
00000350: 65b6 743b 7e13 8d3c ba23 0abe 76a4 123e
00000360: a2ab 443e 2833 3f3d 1ba9 173e 72fb 35be
00000370: 11e2 423d 5a29 363c a22e 57bd ad72 f93d
00000380: 931f 2cbe aa1d 7fbd a798 12be 4829 42bd
00000390: acb2 24bd e323 0ebe 1054 673d 04bf 21bd
000003a0: 390f 2fbe 207c 8dbb 41ec fcbd 2a8f 68bd
000003b0: cecd efbd 9a5a ce3d 387e 45bd 3137 08be
000003c0: d855 c6bc 2f5f 2e3e 7f6f 233e 427f fd3d
000003d0: 2019 893b 21be a9bd d03a bdbd 503d 03bd
000003e0: f251 b1bd ef72 2c3e 2f49 103e 91f3 b9bd
000003f0: d480 6b3d ef4f 143e 00a0 a7b9 c067 af3c
0.16264759 0.15673822 -0.053439405 -0.06620054 0.025533231 -0.014609982 -0.1629438 0.07834968
-0.1243044 -0.12905623 0.024121914 -0.11480572 0.06897101 0.10064195 0.1028973 0.052070845
-0.102277756 0.008312603 -0.070653185 -0.09422376 0.20687698 -0.031854343 -0.13983409 0.080231495
-0.102686316 0.011191256 0.08506533 -0.05361331 -0.018695707 -0.05630686 0.15521613 -0.118464574
0.030661974 0.118053764 0.032185264 0.008766917 0.017166398 -0.092306 0.1551936 0.029210722
-0.04658248 -0.0063971137 0.08614219 -0.07735858 0.105746575 0.16047905 0.0029598223 0.016955689
0.17493984 0.014841737 -0.103037596 -0.021084845 -0.11562479 -0.09071457 -0.0024508997 -0.17130709
-0.0046634222 -0.0041889786 0.16672611 0.16944243 -0.12074399 0.049971048 0.024393518 0.099810496
-0.15830019 -0.075837605 0.20479934 -0.014029544 -0.071587764 0.07772662 0.06784667 -0.048208345
-0.068351634 0.09648462 0.11762833 -0.062467054 0.008424247 0.055546924 -0.13752584 -0.042632703
0.11428455 -0.13955861 -0.005318615 -0.18106087 -0.1215837 0.1516244 -0.084332354 0.13418943
0.011746976 -0.1144383 0.14504372 -0.1168706 0.024712058 0.035372883 0.15451725 -0.045017302
0.047924593 -0.04950683 -0.08718238 -0.15556785 -0.10828372 -0.15392907 0.13432248 -0.10383567
0.068102375 0.029589027 -0.11028081 -0.1475706 -0.0027819425 0.09832896 -0.12264907 0.124387965
-0.06828464 0.05761543 0.11137809 0.106395885 0.07454188 -0.10377319 0.01091589 0.0033091754
0.04584013 -0.07920293 -0.08104268 -0.1320128 0.016841203 0.038075343 0.09399079 0.042381182
0.08646589 -0.061883453 0.041304894 0.014290679 0.013729489 -0.049761597 0.041012928 0.09877917
-0.05154046 0.12578489 -0.05719136 -0.026005654 -0.0059676096 -0.11060101 -0.030739728 -0.071962215
0.12119384 0.1331844 0.063598864 0.12864651 0.046827998 0.12210607 0.055025186 -0.08005082
0.0365407 0.07175515 0.092060626 0.08344064 -0.16459653 0.082904905 0.034124017 0.12145466
0.090839796 0.15661883 -0.095898665 0.108029634 0.09429118 0.088395745 -0.06911203 0.050386
0.068223745 0.056820538 0.15282018 0.08443029 0.004292342 0.058125407 -0.10922273 0.033334956
-0.17447548 -0.102608636 -0.038768146 -0.15719879 -0.12901545 -0.13815817 -0.06358536 0.03465373
-0.042160388 0.19769432 0.018332044 0.14173381 0.013125561 -0.13182318 0.0920628 0.119234
-0.032260455 0.018655716 0.15709443 0.16828525 0.17358865 -0.0009534999 0.03536956 0.12571505
-0.120634705 -0.1414778 -0.15560046 -0.15326457 -0.16647263 0.006143836 -0.124113455 -0.071721904
0.08549708 -0.010131095 0.09429299 0.05480212 0.003734016 0.017221209 -0.13490191 0.1432055
0.19206098 0.046679646 0.14810602 -0.177717 0.047578875 0.011118257 -0.052534707 0.12180076
-0.1680892 -0.06228415 -0.14316045 -0.04740265 -0.040209457 -0.13880877 0.056476653 -0.039488807
-0.1709565 -0.0043177754 -0.12349749 -0.056777157 -0.11709176 0.100758746 -0.048216075 -0.13302304
-0.024210855 0.17028497 0.15960501 0.12377788 0.0041839033 -0.08288217 -0.09239733 -0.032040894
-0.08658208 0.16840719 0.14090417 -0.0907966 0.057495907 0.14483617 -0.00031971931 0.021411777

fc_stack_1.6.weight_v f4 [1, 32]
00000000: aecb 07bc de6e b53d 99b7 fdbd 74fb c3bd
00000010: 346c 7e3d 0ab0 1d3e 3c74 c6bd c8e4 ebbd
00000020: 282d 62bd bf47 013d d806 3ebc f4c6 c4bd
00000030: 7b43 76bd 4249 b9bd c1ce e93d 7269 203e
00000040: 903c b63d a1ec 813d 4d2d fcbd 1c69 223e
00000050: 3693 73bd f653 063e c8d6 16be cd20 143e
00000060: f2f0 8b3d 44ad 5b33 6a13 2cbe 54ea 963d
00000070: 645c 3bbc 5f7b d33d 8e33 5f3d d253 133e
-0.008288307 0.08859037 -0.12388534 -0.09569445 0.06211491 0.15399185 -0.09690139 -0.11518246
-0.055218846 0.031562563 -0.011598311 -0.0960826 -0.06012295 -0.09047176 0.11416388 0.15665224
0.0889827 0.063439615 -0.12313328 0.15860409 -0.059466563 0.13117966 -0.1473037 0.14465638
0.06833066 5.1147495e-08 -0.16804281 0.07368913 -0.011435602 0.103262655 0.054492526 0.14387444
