models/Circle_20.pth (torch, 21067 bytes, 7 tensors)

fc_stack_1.0.bias f4 [64]
0.5106331 -0.0803867 -0.59259486 -0.70801485 0.53921616 0.16372246 0.5333451 -0.5270968
-0.19834031 -0.5161474 -0.1068102 0.08066921 -0.10721133 0.461997 0.2631741 0.33947057
-0.31154746 -0.533008 -0.11455438 -0.38072976 -0.4860558 -0.51554346 0.46074337 -0.61221266
-0.65949637 0.33322978 0.08001157 0.43112963 0.13648807 -0.605505 0.20873153 -0.31662667
-0.57247734 -0.21055856 0.21880838 -0.6415379 -0.12963256 0.34656882 -0.3664926 0.3083769
-0.20728731 -0.014667969 0.07377727 -0.51926357 0.44372508 -0.28187087 -0.3858548 -0.49208376
0.30769926 0.662531 -0.16316459 0.45113334 -0.4295616 -0.15129721 0.30243152 -0.3779857
0.6526075 -0.395462 0.41458097 -0.47491524 -0.07387914 0.6646958 0.32178438 -0.6782178
00000000: dab8 023f c8a1 a4bd 4cb4 17bf 7640 35bf
00000010: 120a 0a3f dca6 273e 4e89 083f d1ef 06bf
00000020: b919 4bbe 3c22 04bf 4ebf dabd e635 a53d
00000030: 9d91 dbbd df8a ec3e c1be 863e 16cf ad3e
00000040: 2683 9fbe 3673 08bf 7d9b eabd 03ef c2be
00000050: 4edc f8be a8fa 03bf 8ee6 eb3e f8b9 1cbf
00000060: c1d4 28bf 189d aa3e 1bdd a33d 06bd dc3e
00000070: 87c3 0b3e 6002 1bbf b8bd 553e e41c a2be
00000080: e08d 12bf aa9c 57be 4e0f 603e d43b 24bf
00000090: 66be 04be 7871 b13e eba4 bbbe 94e3 9d3e
000000a0: 2043 54be ec51 70bc 8a18 973d 75ee 04bf
000000b0: ef2f e33e 6151 90be c38e c5be 67f2 fbbe
000000c0: c28a 9d3e a29b 293f 9e14 27be f3fa e63e
000000d0: 7fef dbbe a8ed 1abe 4ed8 9a3e 5787 c1be
000000e0: 4911 273f ff79 cabe f543 d43e 1728 f3be
000000f0: f24d 97bd 8129 2a3f ecc0 a43e af9f 2dbf

fc_stack_1.0.weight_g f4 [64, 1]
0.26863706 0.48814267 0.026351342 0.6894802 0.2809856 0.23213404 0.878663 0.11269609
0.3754393 0.16842781 0.6755224 0.45589945 0.7963189 0.52843875 0.5828268 0.6779914
0.4120023 0.743025 0.6488277 0.26454595 0.5658008 0.48512068 0.74895453 0.4299404
0.7139691 0.5780587 0.5607584 0.66683936 0.16551985 0.43859947 0.48748815 0.36651626
0.8196777 0.2557054 0.66443175 0.085151315 0.6429924 0.70932895 0.70221007 0.46792367
0.28072366 0.53542936 0.83550143 0.7755935 0.6394003 0.30385107 0.7644951 0.28205428
0.9439001 0.6583123 0.4076723 0.3835003 0.629066 0.92445683 0.5156519 0.6332876
0.6917057 0.58627427 0.489429 0.40236497 0.49713153 0.46105832 0.7426964 0.7818104
00000000: cc8a 893e d6ed f93e c5de d73c c681 303f
00000010: 58dd 8f3e 8cb4 6d3e 0ff0 603f 35cd e63d
00000020: 9439 c03e 5778 2c3e 09ef 2c3f a76b e93e
00000030: 8edb 4b3f c347 073f 2334 153f d890 2d3f
00000040: f7f1 d23e e336 3e3f 9219 263f 9172 873e
00000050: 52d8 103f bd61 f83e 7cbb 3f3f 2621 dc3e
00000060: aec6 363f a8fb 133f dd8d 0f3f fcb5 2a3f
00000070: 097e 293e 1c90 e03e 0c98 f93e 05a8 bb3e
00000080: 66d6 513f d1eb 823e 3318 2a3f d063 ae3d
00000090: 269b 243f 9596 353f 0ac4 333f b193 ef3e
000000a0: 03bb 8f3e e611 093f 6ce3 553f 4c8d 463f
000000b0: bdaf 233f 5e92 9b3e f3b5 433f 6b69 903e
000000c0: 70a3 713f 2887 283f 6cba d03e 275a c43e
000000d0: 780a 213f 34a9 6c3f c301 043f 231f 223f
000000e0: a013 313f 1216 163f 7096 fa3e c802 ce3e
000000f0: 0688 fe3e d60f ec3e 5a21 3e3f ba24 483f

fc_stack_1.0.weight_v f4 [64, 2]
-0.19797926 -0.18999438 -0.4792105 0.092954695 0.025623262 -0.006151557 0.69951344 0.111557655
-0.12276679 -0.25649804 0.17616047 0.15938513 -0.6136088 0.6138785 0.04395318 0.10377151
0.273813 0.24837415 0.11163378 -0.1261183 -0.24824332 0.6217467 0.39269537 -0.2515294
0.69486403 0.39968544 0.39053315 0.350854 0.23361559 0.5339156 -0.33672866 0.5813017
0.40340382 -0.09630394 -0.5864443 0.4562556 0.3980517 -0.47956568 0.063029826 -0.2569276
0.45151582 0.3401069 -0.4586376 -0.15809375 0.6371389 -0.38941136 0.25156313 0.34866136
0.7056394 -0.108742416 -0.58516616 0.047447465 0.27334377 -0.4699404 -0.57883275 0.30817825
-0.14824495 -0.04231307 0.0735122 0.43239504 -0.19453625 -0.49372736 -0.23467374 -0.2815358
-0.6320309 0.52192765 0.11708546 -0.22732407 0.31555116 -0.56933177 0.075104 -0.040126503
-0.010363148 0.64642775 -0.24907333 -0.6720411 0.68269026 0.07160621 0.45718044 0.044829138
-0.27073956 -0.074201465 0.06089838 0.5388551 0.6712135 0.49174497 -0.6983687 -0.33738172
-0.44720435 -0.43441403 0.12101197 -0.27871415 -0.6154904 0.45345813 -0.2771542 -0.052346468
-0.6568324 0.6850083 -0.042656224 0.6576941 -0.015455118 0.40665546 -0.38099205 0.055250395
0.0033111572 -0.6290573 -0.6222802 -0.6836577 0.12689312 -0.4942511 0.56959975 -0.24825536
-0.5921687 0.34594843 0.5272458 0.21340969 -0.47066584 0.11171898 0.21670568 0.33902246
0.018767009 0.48756292 -0.13372204 0.43899214 0.54009336 -0.4940239 0.57864314 -0.52573717
00000000: 13bb 4abe e38d 42be 145b f5be 085f be3d
00000010: e0e7 d13c 0093 c9bb 5013 333f 5778 e43d
00000020: 286d fbbd b653 83be 6963 343e db35 233e
00000030: 7715 1dbf 2427 1d3f 4008 343d 2886 d43d
00000040: 3831 8c3e cb55 7e3e 40a0 e43d 2825 01be
00000050: 7f33 7ebe cb2a 1f3f 5e0f c93e 76c8 80be
00000060: 9ce2 313f 92a3 cc3e f6f3 c73e 23a3 b33e
00000070: ed38 6f3e b1ae 083f b367 acbe 30d0 143f
00000080: f28a ce3e 003b c5bd 3721 16bf 569a e93e
00000090: 6fcd cb3e a289 f5be c815 813d 048c 83be
000000a0: 152d e73e 7e22 ae3e 8cd2 eabe 54e3 21be
000000b0: 891b 233f ed60 c7be e2cc 803e be83 b23e
000000c0: c9a4 343f 58b4 debd 73cd 15bf 4658 423d
000000d0: b7f3 8b3e 079c f0be 622e 14bf 8ac9 9d3e
000000e0: 86cd 17be 7850 2dbd 908d 963d e262 dd3e
000000f0: 8334 47be d5c9 fcbe 504e 70be 7625 90be
00000100: c7cc 21bf 0d9d 053f 80ca ef3d a4c7 68be
00000110: ec8f a13e babf 11bf 20d0 993d b05b 24bd
00000120: 31ca 29bc 4a7c 253f 140d 7fbe e30a 2cbf
00000130: cac4 2e3f 47a6 923d 8e13 ea3e c29e 373d
00000140: 609e 8abe f0f6 97bd 9470 793d 68f2 093f
00000150: a6d4 2b3f ffc5 fb3e 4bc8 32bf 4cbd acbe
00000160: f8f7 e4be 846b debe 20d5 f73d 9fb3 8ebe
00000170: c790 1dbf aa2b e83e 28e7 8dbe 4069 56bd
00000180: 2b26 28bf b45c 2f3f 4bb8 2ebd a45e 283f
00000190: 7737 7dbc 2535 d03e 6411 c3be 3d4e 623d
000001a0: 0000 593b e609 21bf c14d 1fbf 3104 2fbf
000001b0: 45f0 013e 7b0e fdbe 4ad1 113f a736 7ebe
000001c0: 5e98 17bf 2720 b13e 95f9 063f 1288 5a3e
000001d0: 1dfb f0be eccc e43d 18e8 5d3e 5a94 ad3e
000001e0: 45bd 993c d9a1 f93e 6eee 08be 94c3 e03e
000001f0: 8f43 0a3f b3f0 fcbe f521 143f b696 06bf

fc_stack_1.3.bias f4 [64]
-0.10992165 -0.040125877 0.084161974 0.10238914 -0.086143136 -0.0089237215 -0.016810998 -0.105266884
-0.009147003 0.044013496 -0.043439433 -0.04857571 0.09283279 0.11276358 -0.024803435 -0.07417393
-0.04585223 -0.05153454 -0.11695258 0.018094383 0.12464599 0.09824604 -0.046764687 0.09074928
-0.071884565 -0.089439586 0.09451665 0.08971089 -0.046694845 0.12548016 -0.08035432 -0.10391337
-0.10298665 -0.066829935 -0.062416553 -0.012583002 0.06756694 0.075000346 -0.0048137605 0.09040872
0.08135276 0.050768767 0.02530869 0.05322605 0.106179565 0.12218151 0.060644526 -0.07882177
0.015259085 0.055432823 -0.08162317 0.06576925 0.08815193 -0.04304343 -0.07423376 0.028028697
0.116951376 -0.027777925 -0.045613218 -0.02173829 0.06608768 -0.10407127 0.0024282373 0.08889221
00000000: 9a1e e1bd 085b 24bd 1d5d ac3d 66b1 d13d
00000010: d06b b0bd cd34 12bc 38b7 89bc 2a96 d7bd
00000020: 50dd 15bc 7f47 343d 8ced 31bd 53f7 46bd
00000030: 1e1f be3d 98f0 e63d 9330 cbbc 80e8 97bd
00000040: 8ccf 3bbd e215 53bd d684 efbd ac3a 943c
00000050: 6646 ff3d 3835 c93d 548c 3fbd c2da b93d
00000060: 3738 93bd 1a2c b7bd f291 c13d 58ba b73d
00000070: 1843 3fbd df7d 003e ce90 a4bd 88d0 d4bd
00000080: aaea d2bd 22de 88bd 80a8 7fbd f028 4ebc
00000090: 8960 8a3d c899 993d c0bc 9dbb 3528 b93d
000000a0: 479c a63d e9f2 4f3d 2b54 cf3c 8f03 5a3d
000000b0: ac74 d93d 4d3a fa3d 6566 783d 4f6d a1bd
000000c0: 3e01 7a3c 870d 633d 0c2a a7bd 07b2 863d
000000d0: 0089 b43d 4f4e 30bd df07 98bd 709c e53c
000000e0: 3484 ef3d 888e e3bc edd4 3abd 8014 b2bc
000000f0: fa58 873d 5123 d5bd 1023 1f3b 1e0d b63d

fc_stack_1.3.weight_g f4 [64, 1]
0.57096094 0.520698 0.5983514 0.53741044 0.6118846 0.6177198 0.592487 0.5762548
0.57149047 0.6076267 0.6158611 0.5469843 0.5663086 0.5985187 0.56404734 0.5809925
0.583255 0.5910203 0.5389439 0.61978835 0.5617892 0.6247006 0.5937939 0.53354037
0.5588572 0.59349245 0.59151655 0.59335333 0.58101964 0.5453396 0.49636266 0.56429696
0.60287464 0.54071015 0.5787395 0.6187556 0.53206885 0.591213 0.58583355 0.54715633
0.5921724 0.5776021 0.51936156 0.5619396 0.57208264 0.5533778 0.55103505 0.589316
0.53662777 0.6245134 0.557156 0.5745761 0.5580501 0.6035614 0.5915758 0.5833204
0.555591 0.55653024 0.5932845 0.6679619 0.52399236 0.654043 0.5587653 0.5254295
00000000: 7f2a 123f 774c 053f 8f2d 193f bb93 093f
00000010: 78a4 1c3f e322 1e3f 3aad 173f 6f85 133f
00000020: 334d 123f 6c8d 1b3f 13a9 1d3f 2a07 0c3f
00000030: 9af9 103f 8638 193f 6865 103f edbb 143f
00000040: 3350 153f 1b4d 173f 3af8 093f 73aa 1e3f
00000050: 6bd1 0f3f 61ec 1f3f e102 183f 1a96 083f
00000060: 4411 0f3f 1fef 173f a16d 173f 01e6 173f
00000070: b4bd 143f 609b 0b3f 3f23 fe3e c475 103f
00000080: fe55 1a3f fb6b 0a3f 4628 143f c466 1e3f
00000090: aa35 083f bc59 173f 30f9 153f 7012 0c3f
000000a0: 9c98 173f bbdd 133f e1f4 043f 46db 0f3f
000000b0: 0274 123f 2baa 0d3f a210 0d3f 6add 163f
000000c0: 7060 093f 1ce0 1f3f c7a1 0e3f 6b17 133f
000000d0: 5fdc 0e3f 0083 1a3f 8371 173f 7c54 153f
000000e0: 363b 0e3f c478 0e3f 7ee1 173f 8dff 2a3f
000000f0: 5d24 063f 5d6f 273f 3e0b 0f3f 8c82 063f

fc_stack_1.3.weight_v f4 [64, 64]
-0.0068540974 -0.001357654 -0.046981767 0.0012867658 0.040389642 -0.09076056 0.12231045 0.08605277
-0.09326799 0.10425576 0.058534056 0.05392404 0.057912707 -0.06588151 0.08064927 0.12550068
-0.1098553 0.018767994 0.03940351 -0.0884005 -0.013710963 0.031451534 0.014088655 0.069506355
-0.095839925 -0.09752264 -0.103937864 0.07537957 0.037977494 -0.05775284 -0.038255796 -0.00013092461
-0.0038608124 -0.025516978 -0.011857112 0.08968101 0.010745249 0.07095132 0.034361806 0.08294207
-0.057748713 -0.085880406 0.106028706 0.10542984 0.08814305 -0.043078784 9.0174507e-07 -0.015598133
0.115473755 -0.04707303 0.018056849 -0.037370667 -0.08139684 -0.06850769 -0.039449934 0.051181898
-0.047287945 0.013530446 0.08662142 -0.071607806 0.10871943 -0.09502671 -0.08349969 -0.012205049
0.015124232 -0.072810456 0.0634307 -0.11840291 -0.09695348 0.00013066828 -0.091839835 0.009570375
-0.090737805 -0.11297129 -0.006030813 0.03575678 -0.07271208 -0.06651479 0.007853448 -0.07778624
-0.049156293 -0.015977934 -0.066244766 0.07984729 0.055379868 0.0210464 0.028992116 -0.03055571
0.10959312 0.10026856 -0.05409099 -0.023779765 -0.058475077 -0.034857094 0.07829538 -0.08721256
-0.022524819 0.005086258 -0.032620892 0.042486385 -0.072228864 -0.09058145 0.08104804 0.045617178
-0.06721434 0.04927726 -0.0600186 -0.053734705 -0.0658427 0.010318235 0.10765511 0.03861706
-0.11113328 -0.10393934 -0.036793903 0.11859214 -0.05367261 -0.039922252 0.030361786 -0.034525856
0.097019315 0.06507686 0.012921572 0.09051816 0.051453307 -0.033365697 -0.032113984 0.021308213
0.064006045 -0.07513512 -0.034120847 0.0060299207 0.115054876 -0.09629114 0.050698712 -0.072229795
-0.11378938 -0.08042933 -0.008337942 -0.12010551 -0.023792867 0.019189283 0.11077783 -0.038477473
-0.07774075 -0.010976265 -0.06020044 -0.08178572 0.03917256 0.092039436 -0.021502428 0.025247421
0.10667887 0.047051806 0.12737358 0.10008672 -0.012568908 -0.05671929 0.051425982 -0.0062015485
0.09452295 -0.029704416 -0.1203872 0.014332187 0.012605209 0.14021246 0.07692466 0.11216972
0.064782776 -0.015578333 0.0034464712 0.0642242 -0.04249713 -0.011510114 -0.09137356 -0.006237838
0.12668656 -0.118914396 0.09603072 -0.11696382 -0.054592595 -0.060271338 0.0041043377 -0.11096451
-0.046551127 -0.056342494 -0.03135045 -2.2447723e-05 0.12966035 0.010723133 0.09442406 -0.019110503
-0.04993314 0.022674417 0.08319772 -0.10253339 -0.12151592 -0.023596125 -0.05312303 0.06334567
0.050352845 0.113432296 0.016932335 -0.0049727075 -0.052765995 0.106802866 -0.06419121 0.0022485163
0.04927247 0.07688911 0.012321089 0.081109904 -0.04103461 -0.012398203 -0.0013997768 -0.046725783
0.042161815 -0.017764162 -0.025893932 -0.11954821 0.036557585 -0.00017160823 -0.10226259 0.111231625
-0.11537707 -2.6883198e-08 -0.10584309 -0.054922197 -0.11103356 0.025171144 0.048197206 0.06693126
0.0417212 -0.044759043 -0.11582746 -0.06225278 -0.09168167 0.08305029 -0.0062932074 0.025866045
-0.09147013 0.06903018 -0.00058771315 0.0093548 0.049698252 0.024025215 -0.011276092 -0.0074546137
0.040515084 -0.050958168 -0.06843088 0.08292058 -0.071183115 -0.07128722 0.041020565 -0.0696112
00000000: 5698 e0bb 4ff3 b1ba f46f 40bd b2a8 a83a
00000010: 9c6f 253d ace0 b9bd e77d fa3d 6f3c b03d
00000020: 4a03 bfbd 0b84 d53d 68c1 6f3d 74df 5c3d
00000030: e035 6d3d e3ec 86bd 722b a53d 4083 003e
00000040: d1fb e0bd 56bf 993c 9365 213d 520b b5bd
00000050: f2a3 60bc 53d3 003d 1ad4 663c 5959 8e3d
00000060: b947 c4bd f3b9 c7bd 60dd d4bd 9b60 9a3d
00000070: 4a8e 1b3d 3e8e 6cbd 1cb2 1cbd cf48 09b9
00000080: af05 7dbb fb08 d1bc 5544 42bc adaa b73d
00000090: d70c 303c ed4e 913d f7be 0c3d 88dd a93d
000000a0: ea89 6cbd 11e2 afbd 9425 d93d 9aeb d73d
000000b0: 5884 b43d 6173 30bd 730f 7235 508f 7fbc
000000c0: 817d ec3d a6cf 40bd f5eb 933c fc11 19bd
000000d0: 63b3 a6bd c34d 8cbd 4196 21bd 1ca4 513d
000000e0: 01b1 41bd ceae 5d3c 9266 b13d 1da7 92bd
000000f0: 4ba8 de3d 5d9d c2bd e301 abbd b0f7 47bc
00000100: a0cb 773c a61d 95bd f4e7 813d 3a7d f2bd
00000110: 8c8f c6bd 0004 0939 8616 bcbd 10cd 1c3c
00000120: bed4 b9bd 7e5d e7bd 209e c5bb b475 123d
00000130: 12ea 94bd e838 88bd c0ab 003c 644e 9fbd
00000140: 1c58 49bd 28e4 82bc 56ab 87bd fa86 a33d
00000150: 00d6 623d 8069 ac3c e080 ed3c f84f fabc
00000160: 5c72 e03d 9a59 cd3d 848e 5dbd c8cd c2bc
00000170: 9083 6fbd 50c6 0ebd 5459 a03d 809c b2bd
00000180: f885 b8bc a0aa a63b 7c9d 05bd 3406 2e3d
00000190: baec 93bd c482 b9bd 84fc a53d 14d9 3a3d
000001a0: aca7 89bd f4d6 493d 10d6 75bd ec18 5cbd
000001b0: 8ad8 86bd d00d 293c 487a dc3d ec2c 1e3d
000001c0: d899 e3bd 26de d4bd 34b5 16bd 70e0 f23d
000001d0: d0d7 5bbd 8485 23bd 48b9 f83c fc6a 0dbd
000001e0: 10b2 c63d 0447 853d 00b5 533c 9661 b93d
000001f0: b4c0 523d 78aa 08bd f489 03bd 908e ae3c
00000200: 9a15 833d 71e0 99bd 4dc2 0bbd a496 c53b
00000210: e4a1 eb3d 4a34 c5bd 74a9 4f3d 37ed 93bd
00000220: 680a e9bd 22b8 a4bd dd9b 08bc e1f9 f5bd
00000230: 42e9 c2bc d832 9d3c 7ddf e23d 8e9a 1dbd
00000240: 8b36 9fbd cbd5 33bc bd94 76bd 467f a7bd
00000250: 6873 203d 2c7f bc3d dc25 b0bc aed3 ce3c
00000260: 747a da3d 65b9 403d 386e 023e 44fa cc3d
00000270: d2ed 4dbc 7c52 68bd 0da4 523d 5c36 cbbb
00000280: 4095 c13d ad56 f3bc 908d f6bd 8dd1 6a3c
00000290: 1486 4e3c db93 0f3e ad8a 9d3d 3db9 e53d
000002a0: d5ac 843d 443c 7fbc 31de 613b fa87 833d
000002b0: 7811 2ebd eb94 3cbc 1022 bbbd c766 ccbb
000002c0: 1fba 013e 6489 f3bd c1ab c43d ba8a efbd
000002d0: 7c9c 5fbd 14df 76bd ae7d 863b 5c41 e3bd
000002e0: 65ac 3ebd 63c7 66bd 5469 00bd 1e4e bcb7
000002f0: afc5 043e 14b0 2f3c 6761 c13d a18d 9cbc
00000300: b186 4cbd b3bf b93c 9163 aa3d 07fd d1bd
00000310: 57dd f8bd a94c c1bc 8997 59bd 60bb 813d
00000320: c93e 4e3d 314f e83d aeb5 8a3c 18f2 a2bb
00000330: 2821 58bd 76bb da3d ae76 83bd d85b 133b
00000340: eed1 493d 0a78 9d3d 65de 493c f31c a63d
00000350: e813 28bd d521 4bbc b778 b7ba 8963 3fbd
00000360: deb1 2c3d 2686 91bc 831f d4bc b1d5 f4bd
00000370: 68bd 153d bcf1 33b9 0c6f d1bd 68cd e33d
00000380: d04a ecbd c7ec e6b2 43c4 d8bd 19f6 60bd
00000390: 9065 e3bd b733 ce3c 6f6a 453d 4213 893d
000003a0: d9e3 2a3d 4255 37bd f336 edbd c5fc 7ebd
000003b0: 99c3 bbbd 4516 aa3d 4037 cebb 07e5 d33c
000003c0: b154 bbbd b25f 8d3d c310 1aba e044 193c
000003d0: 6590 4b3d 87d0 c43c 5cbf 38bc d545 f4bb
000003e0: 25f3 253d 83b9 50bd 7d25 8cbd 44d2 a93d
000003f0: 74c8 91bd 09ff 91bd 2e05 283d 5190 8ebd

fc_stack_1.6.weight_v f4 [1, 64]
0.089378454 0.048845638 0.09444006 -0.0407103 0.038918383 0.12787355 -0.05841897 -0.0029432804
0.0015353158 -0.008473503 -0.027197614 0.060525123 0.076072976 -0.040639773 0.088454075 -0.037911132
-0.049912542 -0.09718512 -0.06345333 0.047091726 0.028523413 0.119257905 -0.079015486 -0.03736417
-0.0092363525 -0.10136002 -0.10290382 0.04725204 -0.06555407 -0.120538555 -0.025737213 0.10808
0.06808298 -0.040556356 0.07525165 -0.027110975 0.090117246 -0.023198685 0.022321867 0.121821344
0.004717736 0.00698481 -0.11948685 0.025773276 0.048797455 0.110148676 -0.068092585 0.02197232
-0.09875372 -0.085307956 -0.043236073 -0.09685035 0.120150015 0.00820066 0.11883383 -0.03567067
-0.087754555 0.116375975 -0.027435293 0.04833039 -0.073997885 0.09427432 -0.1349793 -0.123243436
00000000: 0d0c b73d 5d12 483d ca69 c13d d8bf 26bd
00000010: e268 1f3d 49f1 023e bb48 6fbd 0de4 40bb
00000020: a63c c93a 73d4 0abc 88cd debc 31e9 773d
00000030: 26cc 9b3d e475 26bd 6927 b53d b448 1bbd
00000040: 1871 4cbd fe08 c7bd d2f3 81bd 41e3 403d
00000050: efa9 e93c 7d3d f43d dfd2 a1bd 2c0b 19bd
00000060: 1254 17bc d895 cfbd 3dbf d2bd 5b8b 413d
00000070: 3641 86bd ebdc f6bd d9d6 d2bc 0c59 dd3d
00000080: 176f 8b3d 6c1e 26bd 891d 9a3d d617 debc
00000090: 648f b83d 2b0b bebc 59dc b63c 787d f93d
000000a0: 3d97 9a3b d5e0 e43b 86b5 f4bd 7a22 d33c
000000b0: d7df 473d a195 e13d 2074 8bbd 4bff b33c
000000c0: 643f cabd f0b5 aebd 4f18 31bd 7a59 c6bd
000000d0: 3611 f63d 105c 063c 275f f33d 691b 12bd
000000e0: a9b8 b3bd 8756 ee3d fbbf e0bc 16f6 453d
000000f0: 348c 97bd e512 c13d 0338 0abe 0e67 fcbd
