models/Circle_10.pth (torch, 7883 bytes, 7 tensors)

fc_stack_1.0.bias f4 [32]
00000000: d5a4 2a3f 1bf8 d13e c4b3 c23d c7d2 1c3f
00000010: 0a51 0b3f 2920 06bf 976c 8cbe c3f8 913e
00000020: 9713 e6be 8dfa ee3e da9f 213f 7466 203f
00000030: 78de f73e bb2f a8be 7563 f9be 8b47 b9be
00000040: e271 373e 1310 bdbe 817d c03e 57af 9cbe
00000050: d006 b13d 5ccd ec3e 1aae 843e 7826 01bc
00000060: 614f 083d a258 333f 3166 f43e 0b28 0bbf
00000070: d5a4 02be 64b1 953c 860a fe3e 3598 30bf
0.66657764 0.41009602 0.09506944 0.6125912 0.5442053 -0.5239282 -0.27426597 0.28510103
-0.4493682 0.4667553 0.6313454 0.6265633 0.48411918 -0.32848915 -0.48708692 -0.36187395
0.17914537 -0.36926326 0.37595752 -0.30602524 0.086438775 0.46250427 0.2591408 -0.007882707
0.033278827 0.7005712 0.47734216 -0.54357976 -0.12758191 0.018273063 0.49617404 -0.6898225

fc_stack_1.0.weight_g f4 [32, 1]
00000000: 5704 d13e 809b dc3d 526f 143f 0082 413f
00000010: fb81 123f 8877 213f aa01 ca3e 3b19 083f
00000020: be8f ff3e 7df3 053f c687 2e3f 30f6 323f
00000030: 4757 e93e 45be e53d 2901 2c3f 8a66 1b3f
00000040: 874d 313e 21d8 273f 40f9 4c3e 25d3 de3e
00000050: b953 233f 9ea2 a83d fd53 db3e dfac 333f
00000060: 1d12 173f 8bfe 093f eb58 683e ef3f 203f
00000070: 980c a83e 7304 623e 759d 233f 57c6 113f
0.40823624 0.10771847 0.5798236 0.7558899 0.57229584 0.63073015 0.39454395 0.531635
0.49914354 0.5232466 0.68175924 0.699069 0.455744 0.11217932 0.6718927 0.6070334
0.1731473 0.6556416 0.20016956 0.43520465 0.63799626 0.08234142 0.42837515 0.70185655
0.59012014 0.53904027 0.2269017 0.62597555 0.32822108 0.2207201 0.63912135 0.5694327

fc_stack_1.0.weight_v f4 [32, 2]
00000000: 2fc0 ce3e 44a3 ee3d f7ad b53d 2ce5 803d
00000010: db4e 113f 500c 9fbd 6b94 183f 028b f33e
00000020: 71d5 ec3e fa39 b5be 58f4 4ebe 05f4 18bf
00000030: ea58 8c3e 4d4a 91be 7ec1 113e e876 053f
00000040: b8c2 fc3e 4e24 91bd 7f28 03bf 1299 14be
00000050: 4f9d 1e3f bf77 9a3e a4f0 463e e3d7 2bbf
00000060: 737b cabe e49d 783e d050 e5bd 8028 e03b
00000070: 188f 93be 4a75 1b3f 2b41 173f 2294 10be
00000080: 7da1 97bb 3911 25be ae32 063f bb72 cbbe
00000090: 563c 2a3e 8479 f2bd 26c6 393e 612a d43e
000000a0: 8bfe 203f f6dc 9e3d 4d2e c8bc 6f0a 9f3d
000000b0: 80eb 543e 9f63 c4be d946 5b3e 7faa 2d3f
000000c0: b8af 153f 2ff7 38bd 909f 83be 3128 ecbe
000000d0: fa82 ce3d 3650 3f3e aac4 b73e fe19 083f
000000e0: 2c09 903e edc9 3e3e 3c79 343d ee93 5ebe
000000f0: 7d16 183f 4ccd 863e c5ac 103f e0fc 8e3d
0.40381 0.11652234 0.08871072 0.06293711 0.5676095 -0.0776602 0.5960147 0.47566992
0.46256593 -0.35395795 -0.20210397 -0.59747344 0.27411586 -0.28377 0.14233968 0.5213456
0.4936731 -0.07087003 -0.5123367 -0.14511517 0.61958784 0.30169484 0.19427735 -0.6712629
-0.3954731 0.2427898 -0.111970544 0.0068407655 -0.2882011 0.60725844 0.59083813 -0.14119008
-0.004627405 -0.16119851 0.5242108 -0.3973597 0.16624579 -0.118395835 0.18141994 0.41438583
0.628884 0.07756989 -0.02443614 0.07765662 0.20792961 -0.38357255 0.21413745 0.6783828
0.5847125 -0.045157608 -0.25707674 -0.46124414 0.100835755 0.18682942 0.3589223 0.5316466
0.28131998 0.18631716 0.04406093 -0.21736118 0.59409314 0.26328504 0.56513625 0.06981826

fc_stack_1.3.bias f4 [32]
00000000: eb8c 60bd 34db 003e 1241 9cbd 40bd c4bb
00000010: 85d5 16be 65ce 533d 34af efbd 53af 1a3e
00000020: 0c64 19be 612b 12be 7026 b53c 1e7a c13d
00000030: 9ee0 963d 7d49 0dbd 63af 093e ae4e 91bd
00000040: e7e5 22be 5e7f 9d3d 0045 4abb fff4 a93d
00000050: 7de4 dd3d ca41 543c 23a1 163c a467 f13d
00000060: 9e4c d6bd c3e0 013e b850 e53d 19e5 923c
00000070: ca31 5abd b9d1 b6bd 943d 52bd 2030 e03b
-0.05482189 0.1258362 -0.07629599 -0.0060040057 -0.14729889 0.051710505 -0.11703339 0.15105943
-0.14979571 -0.1427436 0.022113055 0.0944712 0.07367061 -0.034493912 0.13445811 -0.07095085
-0.15908013 0.07690309 -0.003086388 0.082986824 0.10834596 0.012955138 0.009193691 0.11787346
-0.10463832 0.12683396 0.111970365 0.017931508 -0.05327014 -0.0892672 -0.051328257 0.0068416744

fc_stack_1.3.weight_g f4 [32, 1]
00000000: 3f48 133f db1b 063f 7bde 1c3f 1dd7 053f
00000010: d3f9 e83e 9ea0 103f 25b7 2b3f 8ef0 163f
00000020: f5cf 113f 6c5e 1b3f 85ff 1e3f 3f4d 203f
00000030: b62d 163f 87c4 0e3f 2b0b 023f 4d73 093f
00000040: eb89 153f 7983 213f 03b6 123f cdeb 273f
00000050: d9fa 173f 19a8 0c3f c0ca 153f 6757 183f
00000060: acd0 153f d8fa 0f3f e4b2 1a3f 22c1 153f
00000070: 6756 113f 5c80 0f3f 23f7 203f 517c 1a3f
0.57532114 0.52386254 0.6127698 0.5228136 0.455031 0.5649508 0.6707633 0.5896081
0.5695794 0.6069095 0.6210864 0.6261787 0.586635 0.55768627 0.5079829 0.5369156
0.5841357 0.63091236 0.5730898 0.6559418 0.5936714 0.54943997 0.58512497 0.59508365
0.58521533 0.5624213 0.60429215 0.5849782 0.56772465 0.56055236 0.628771 0.6034594

fc_stack_1.3.weight_v f4 [32, 32]
00000000: 2d1b 273e 5da1 293e 97d1 8cbd 5ab3 8dbd
00000010: 37c4 b73c 9140 97bc 3cd4 2abe a5d8 a23d
00000020: 6d36 e5bd f628 d6bd 2159 ad3c 6c42 e6bd
00000030: 1896 bb3d 900f d63d 18ae da3d ac31 eb3d
00000040: bae0 c8bd 408e 483c 3f99 8ebd 29fb 82bd
00000050: b54f 3b3e cbb6 d3bc 9c11 12be cd52 983d
00000060: 428b f3bd e677 043d 2aad b53d 73ff b13c
00000070: f25f 21bd dd5e 73bd be2b 1a3e e48f fabd
00000080: 931e 013d 6fc4 ed3d 09fb 473d 4261 3c3c
00000090: 2f09 a83c 17e7 cdbd 085f 273e 2fba ef3c
000000a0: aefc babd 5a7e 19bd 3228 b73d 56c0 a5bd
000000b0: a3d4 b73d d4c8 2c3e cb9b 2c3c 3125 8abd
000000c0: 03b7 2f3e 2292 ba3c 41d9 d7bd 4cc4 9bbd
000000d0: 9483 d6bd b751 c5bd 1485 20ba 0719 2dbe
000000e0: a6e8 5c3c 53bb adbc ae49 2a3e b92f ef3d
000000f0: 90b8 dcbd c881 693d a3b9 ea3c be47 dd3d
00000100: 5f04 27be e213 9ebd 8c0e 3e3e 8e50 a2bc
00000110: afeb a2bd 3d68 b53d c325 a13d 38fa 4fbd
00000120: bec4 34bc d770 093e 9b4f e53d 16e7 86bd
00000130: db68 b43c 02ea 873d 51fa 17be a6d8 653d
00000140: 9520 093e a20a 1abe 3ee5 04bc ff96 1fbe
00000150: 34ba 0cbe daf8 1f3e 8d00 c0bd 5aaf 043e
00000160: 6fde 11bc 7eb4 d3bd a550 143e 9be2 8dbd
00000170: 8dc8 623b 981a 403d 0532 173e 5a97 64bd
00000180: 944c 443d acc7 4abd ad8c b2bd 2e4d 1fbe
00000190: dbc3 ddbd 959f 1dbe d58b 093e cca7 d4bd
000001a0: 4279 8b3d b064 f23c e8da e1bd bf1c 17be
000001b0: 4051 36bb b260 c93d 702f fbbd 1ebf fe3d
000001c0: d1d8 8bbd 28fe 6b3d 321a e43d 16e6 d93d
000001d0: 6aa9 983d 0a87 d4bd 90d8 323c c0de 583b
000001e0: dcc2 3b3d 2535 a2bd b4f9 a5bd 5d2e 07be
000001f0: 90f6 893c e4f4 1b3d 3e7e c03d e497 2d3d
00000200: df0a b43d e405 85bd eabf 773d 1fe8 8b3c
00000210: 5d3c 8c3c 4c10 5dbd 1a36 393d 316f cc3d
00000220: ef3d 9fbd 8cd4 a73d f014 61bd 13fe edbc
00000230: b04c a7bc 4b28 ebbd a919 0fbd 152b e2bd
00000240: ecad f03d 40b3 0c3e e229 813d 9b21 ce3d
00000250: f264 813d 4230 ee3d 6863 7b3d c41b 9ebd
00000260: e068 713d f868 543d 3d88 ba3d 43c7 503c
00000270: 4a01 22be 8ac6 b13d dd32 1e3d 8fb1 003e
00000280: 708c bc3d 6da1 1c3e a617 afbd a17b e43d
00000290: 693a cb3d c173 b93d 77f6 91bd 49de 4e3d
000002a0: 2033 1e3d 2401 a13c 0cc3 203e f89f a63d
000002b0: 6f88 2abc eced 763d 721a e4bd 8df4 2ebd
000002c0: af1b 37be 2392 d6bd 70e6 24bd 10b9 31be
000002d0: 6437 f6bd 54d8 11be a96b 81bd 476e 243d
000002e0: ff03 dcbc f510 2b3e 62cd 883c f285 f33d
000002f0: ece8 1f3d e361 09be 1c47 c73d 059b f83d
00000300: a91b 25bd 6fd3 673c 1e02 0f3e 3eb5 243e
00000310: 1ff0 293e 540a 90bc f169 623d a05c fa3d
00000320: 6272 ebbd 2525 02be 8fb6 29be ab2a 27be
00000330: 9d14 2abe ffd9 c83c 571e 14be 7257 773c
00000340: cdd1 da3d 110e edbc 3da6 b93d b70b 163e
00000350: 34b3 56bc f7e0 713c 7604 19be 377a 0d3e
00000360: f37e 303e 905b 6a3d 8bfb 143e abbf 26be
00000370: 0d98 d83c 7c7f 003d 3e0f 81bd 75be 113e
00000380: 931f 2cbe aa1d 7fbd a798 12be 4829 42bd
00000390: acb2 24bd e323 0ebe 1054 673d 04bf 21bd
000003a0: 390f 2fbe 207c 8dbb 41ec fcbd 2a8f 68bd
000003b0: cecd efbd 9a5a ce3d 387e 45bd 3137 08be
000003c0: d855 c6bc 2f5f 2e3e 7f6f 233e 427f fd3d
000003d0: 2019 893b 21be a9bd d03a bdbd 503d 03bd
000003e0: f251 b1bd ef72 2c3e 2f49 103e 91f3 b9bd
000003f0: d480 6b3d ef4f 143e 00a0 a7b9 c067 af3c
0.1631896 0.16565461 -0.068759136 -0.06918974 0.02243243 -0.018463405 -0.16682523 0.07951478
-0.111920215 -0.104570314 0.021160664 -0.11243138 0.091594875 0.10452187 0.10677737 0.114840835
-0.09808488 0.012240946 -0.06962823 -0.06395561 0.18292125 -0.025843998 -0.1426453 0.07437668
-0.11891796 0.032340907 0.08870919 0.021728253 -0.03939814 -0.05941664 0.15055749 -0.12234476
0.0315233 0.11609732 0.04882339 0.011497797 0.020512192 -0.100538425 0.16344845 0.029263584
-0.09130226 -0.037474014 0.089432135 -0.08093326 0.08976104 0.16873485 0.010535191 -0.06745375
0.17159657 0.02277476 -0.10539485 -0.076058 -0.10474315 -0.096347265 -0.0006123346 -0.16904078
0.013483202 -0.021207487 0.16629669 0.11679024 -0.1077739 0.057008535 0.028652972 0.10804699
-0.16310261 -0.07718636 0.18560237 -0.019813802 -0.07955109 0.088577725 0.078685306 -0.050775737
-0.011033235 0.13421951 0.11196824 -0.06587045 0.022022655 0.0663643 -0.14841582 0.056114815
0.13391335 -0.15043119 -0.008111296 -0.15584944 -0.13742906 0.15622273 -0.09375105 0.12957516
-0.00890313 -0.103371605 0.14483888 -0.06927987 0.00346044 0.04690036 0.14765175 -0.055808403
0.047924593 -0.04950683 -0.08718238 -0.15556785 -0.10828372 -0.15392907 0.13432248 -0.10383567
0.068102375 0.029589027 -0.11028081 -0.1475706 -0.0027819425 0.09832896 -0.12264907 0.124387965
-0.06828464 0.05761543 0.11137809 0.106395885 0.07454188 -0.10377319 0.01091589 0.0033091754
0.04584013 -0.07920293 -0.08104268 -0.1320128 0.016841203 0.038075343 0.09399079 0.042381182
0.08791136 -0.06495264 0.060485758 0.017078457 0.017118627 -0.05397062 0.04521761 0.099821456
-0.07775485 0.08194837 -0.05495161 -0.029051816 -0.02042231 -0.11482295 -0.03493658 -0.110433735
0.11751923 0.13740253 0.06306817 0.100650035 0.06318082 0.11630298 0.061374098 -0.077201396
0.058937907 0.05185792 0.09108017 0.01274282 -0.15820804 0.086804464 0.038622726 0.12567733
0.09206474 0.15295954 -0.085494325 0.11156393 0.0992325 0.090552814 -0.071270876 0.050504956
0.038622975 0.019653864 0.15699404 0.0813598 -0.010408505 0.060285494 -0.111378565 -0.04271369
-0.17881654 -0.10477092 -0.040258825 -0.17355752 -0.12022284 -0.14242679 -0.06319363 0.04014423
-0.026857374 0.16705687 0.016699497 0.118907824 0.03904049 -0.13416247 0.0973036 0.12138943
-0.040309582 0.014149531 0.13965651 0.16084763 0.16595505 -0.01758305 0.055276815 0.12224698
-0.11496426 -0.12709482 -0.16573547 -0.1632487 -0.16609426 0.024518011 -0.14464699 0.015096532
0.106845476 -0.028937371 0.090649106 0.14652906 -0.013104249 0.014763108 -0.14943108 0.13816153
0.17235927 0.057216227 0.14549081 -0.16284053 0.026439691 0.03137158 -0.06301735 0.1423281
-0.1680892 -0.06228415 -0.14316045 -0.04740265 -0.040209457 -0.13880877 0.056476653 -0.039488807
-0.1709565 -0.0043177754 -0.12349749 -0.056777157 -0.11709176 0.100758746 -0.048216075 -0.13302304
-0.024210855 0.17028497 0.15960501 0.12377788 0.0041839033 -0.08288217 -0.09239733 -0.032040894
-0.08658208 0.16840719 0.14090417 -0.0907966 0.057495907 0.14483617 -0.00031971931 0.021411777

fc_stack_1.6.weight_v f4 [1, 32]
00000000: 73fe 65bb 0aba ad3d bef7 f2bd 1e0b 05be
00000010: 3673 823d 3573 1e3e 50d4 9bbd ca1e 19be
00000020: ce40 b6bd f078 843d 2190 30bd 9171 05be
00000030: da76 c0bd 8ecd 99bd cf92 7e3d 3861 223e
00000040: 1f3c fc3d e55b c73d 6a4d 21be 78e0 783d
00000050: 3d19 bfbd 4ef8 083e eae8 0ebe 5e7a 1b3e
00000060: 90d6 523d 598b 943c cd0d 2dbe e93b 9a3d
00000070: 07ca 2fbd 2d10 ed3d 777d 8d3c 82a0 363e
-0.003509429 0.0848275 -0.11863659 -0.12992522 0.06369631 0.15473635 -0.07608855 -0.14953151
-0.08899079 0.064683795 -0.043106202 -0.13031603 -0.09397669 -0.075099096 0.062151726 0.15857399
0.12316155 0.09734324 -0.15752187 0.060760945 -0.09330986 0.1337597 -0.13956037 0.15183398
0.051474154 0.018132852 -0.16899796 0.07530958 -0.042917278 0.11575351 0.01727174 0.17834666
