models/Circle_1000.pth (torch, 7883 bytes, 7 tensors)

fc_stack_1.0.bias f4 [32]
00000000: 9ccc 2d3f 472e e23e 65b8 ab3d 6612 1c3f
00000010: ac95 103f 2920 06bf 976c 8cbe ad0b 903e
00000020: 795c b9be 2361 073f 9149 1c3f 2d23 1b3f
00000030: 446e f43e bb2f a8be 6381 f9be 4b14 8dbe
00000040: d000 493e ead0 c0be 07e4 c83e 409c 91be
00000050: 9ee5 9b3d 791f ef3e b05c 803e d9c5 00bb
00000060: 98e4 403d f3e8 363f efd0 f13e ad25 02bf
00000070: 0421 ecbd db69 efbb 8c92 f23e 3598 30bf
0.67890334 0.44175932 0.0838478 0.60965574 0.5647838 -0.5239282 -0.27426597 0.28133908
-0.36203364 0.52882594 0.61049753 0.6060055 0.47740376 -0.32848915 -0.48731527 -0.27554545
0.19629216 -0.3765939 0.3923647 -0.28439522 0.076121554 0.467037 0.25070715 -0.0019649176
0.047093004 0.714492 0.47229716 -0.5083874 -0.11529735 -0.00730632 0.4737743 -0.6898225

fc_stack_1.0.weight_g f4 [32, 1]
00000000: eff4 9e3e 1662 353b 623a 2b3f 8cff 443f
00000010: 2379 2a3f 8877 213f aa01 ca3e a203 0b3f
00000020: 196d 223f dc3c 203f 916b 373f 79ae 803f
00000030: 7e02 483f 45be e53d 15f2 2b3f 1fa7 3e3f
00000040: a357 6c3e a6f7 253f 3f0b 62ba 3e3f 073f
00000050: ebf9 393f 5d12 113e 359a f43e 8182 523f
00000060: 8e25 453f 2e3f 1e3f 5160 8a3e 49ff 343f
00000070: 6d21 f93e cb5d 5c3e 99d7 3c3f 57c6 113f
0.31046245 0.0027676872 0.6688596 0.76952434 0.6659109 0.63073015 0.39454395 0.5430242
0.6344772 0.62592864 0.7164851 1.0053245 0.781288 0.11217932 0.6716626 0.74473757
0.23080306 0.64831007 -0.00086228916 0.52830875 0.7264697 0.14167161 0.477739 0.82230383
0.7701043 0.61815155 0.2702661 0.70702034 0.48658314 0.21520154 0.73766476 0.5694327

fc_stack_1.0.weight_v f4 [32, 2]
00000000: 0323 a03e 4272 533e 82db 143e f0ff 0a3b
00000010: 0a13 183f aa5b 51bd fe7f 293f 9a80 d13e
00000020: fe34 d93e c8c4 c8be 58f4 4ebe 05f4 18bf
00000030: ea58 8c3e 4d4a 91be 0ab9 c53d 79e0 103f
00000040: fc19 fa3e 4643 7f3d 59a1 20bf 6d47 cfbc
00000050: aadc d33e 87b7 003f dbe4 203e 934a 35bf
00000060: 19dd abbe 0e9c 9a3e d050 e5bd 8028 e03b
00000070: a6ab 93be e966 1b3f 08a0 133f 0764 1ebe
00000080: 2540 5dbd e93b dabd be4f 043f ca31 cfbe
00000090: 2ca7 0a3e 41cb 18be 4fe3 053e 5a5e ed3e
000000a0: ad46 243f 7a45 833d ee8b 11bd e14b 853d
000000b0: d1eb 713e c871 b5be eb5c 963d f7c7 503f
000000c0: 8021 083f 1a26 c6bd f860 89be 2c2e e6be
000000d0: e5bb 453e 7dfe b93d 97c1 823e d06c 223f
000000e0: 8c54 803e f6f9 5d3e 4652 a03c 44a0 71be
000000f0: b366 2a3f a58d 433e c5ac 103f e0fc 8e3d
0.31276712 0.20649055 0.1453686 0.002120968 0.5940405 -0.05111281 0.66210926 0.40918428
0.42423242 -0.39212632 -0.20210397 -0.59747344 0.27411586 -0.28377 0.09654434 0.5659252
0.4884795 0.062320016 -0.62746197 -0.025302613 0.4137929 0.5028004 0.15712301 -0.70816916
-0.33567122 0.30197185 -0.111970544 0.0068407655 -0.28841895 0.60703903 0.57666063 -0.15467845
-0.05401625 -0.10655958 0.51684177 -0.40467674 0.13540334 -0.14921285 0.13074993 0.46361047
0.6417034 0.06409736 -0.035533838 0.065086134 0.23625113 -0.3543837 0.073419414 0.8155512
0.53176117 -0.09675236 -0.26831794 -0.449571 0.19309957 0.09081743 0.25538322 0.63447285
0.25064504 0.21677384 0.019570481 -0.23596293 0.66562957 0.19097002 0.56513625 0.06981826

fc_stack_1.3.bias f4 [32]
00000000: d3d0 7fbd 99f0 063e 4051 a1bd 40bd c4bb
00000010: bed6 10be 5ef9 6b3d 272d e3bd 53af 1a3e
00000020: 0c64 19be 612b 12be 7026 b53c 1e7a c13d
00000030: b1d8 963d 8a8c 26bd daf8 213e 6c3d a0bd
00000040: e7e5 22be 5e7f 9d3d 0045 4abb cd41 c83d
00000050: 7de4 dd3d bfa3 25ba b731 503b be50 fd3d
00000060: b4af bdbd c3e0 013e d018 d93d a7b2 c23c
00000070: ca31 5abd 9126 abbd 273e 96bd 2030 e03b
-0.06245501 0.13177718 -0.07876825 -0.0060040057 -0.14144418 0.057610862 -0.110925965 0.15105943
-0.14979571 -0.1427436 0.022113055 0.0944712 0.07365549 -0.040661372 0.15817586 -0.07824215
-0.15908013 0.07690309 -0.003086388 0.097781755 0.10834596 -0.00063186506 0.0031767914 0.12368916
-0.09262028 0.12683396 0.10600436 0.023766829 -0.05327014 -0.08356965 -0.07336073 0.0068416744

fc_stack_1.3.weight_g f4 [32, 1]
00000000: 8bfa 1c3f 1c16 193f f128 2f3f 1dd7 053f
00000010: e4bc fa3e 6b3f 133f c625 3f3f 8ef0 163f
00000020: f5cf 113f 6c5e 1b3f 85ff 1e3f 3f4d 203f
00000030: de2d 163f c09d 263f 518d 4a3f 7a57 2e3f
00000040: eb89 153f 7983 213f 03b6 123f 5ece 803f
00000050: d9fa 173f e0c2 473f e44b 2b3f 9528 283f
00000060: 2f9b 3a3f d8fa 0f3f 7bdb 2f3f 9011 1f3f
00000070: 6756 113f 61e0 1a3f 76f6 4e3f 517c 1a3f
0.613198 0.5979936 0.68421847 0.5228136 0.48972237 0.57518643 0.7466701 0.5896081
0.5695794 0.6069095 0.6210864 0.6261787 0.5866374 0.6508446 0.7912188 0.6810223
0.5841357 0.63091236 0.5730898 1.0062978 0.5936714 0.7803173 0.66912675 0.65686923
0.7289304 0.5624213 0.68694276 0.62136173 0.56772465 0.60498625 0.8084482 0.6034594

fc_stack_1.3.weight_v f4 [32, 32]
00000000: eb58 273e 6c32 0a3e b051 abbc 78aa 52bd
00000010: f4f3 083d 6a01 0080 4c20 04be aa78 ab3d
00000020: ed08 1dbe 13a5 14be cb67 123d f762 efbd
00000030: 0b3f 3b3d 50c8 883d 4d65 8d3d 6341 8fbd
00000040: 85d9 d5bd 789f 342d 9992 80bd 172d 11be
00000050: 5528 6b3e dcda f2bc d796 f5bd e07d c13d
00000060: 199c 86bd 415f b2bc b523 b23d 0d48 dcbd
00000070: 7ba6 ca3c 9306 b9bc 3610 2a3e ad3b adbd
00000080: 4d58 ac3c 58ca dc3d 959d bdba cac2 9bbb
00000090: 96ac de3b ba89 e5bc fe81 b83d 4cfa 8d3c
000000a0: 680e e33d 44c6 353d 3479 913d 7301 5dbd
000000b0: 2f60 e73d 3444 c33d 5945 bd1d 1cad 1c3e
000000c0: e225 423e b765 0436 03f6 c7bd 6a36 2a3e
000000d0: 0eed 0abe 153e afbd 23c1 f3bb e3d1 35be
000000e0: 0a49 1ebd 3753 eb3c 36e0 183e 71c3 573e
000000f0: bfc5 0ebe 0bcf d012 cfe5 fc3b 72c0 103d
00000100: b0ff 13be a615 8dbd 7bd4 5f3e 262f e6b9
00000110: 046f 6fbd aa58 953c 42e1 0c3c f4c6 11bd
00000120: 326a 0abe fdf7 d63c ee3b 013e 50d6 92bd
00000130: 43f9 acbb ab67 a630 ef94 9ebd ef67 fbbd
00000140: f6e9 6abc 08ba a2bd be00 35bb 7ce8 5ebe
00000150: 2c8c b2bd 0490 0c3e b91a 88bd ed6e 123e
00000160: 7d54 3e3d bc42 04be 46bd 123e 10ac 24be
00000170: bcb3 833d ddd0 809f 9896 283e 4c61 8395
00000180: 944c 443d acc7 4abd ad8c b2bd 2e4d 1fbe
00000190: dbc3 ddbd 959f 1dbe d58b 093e cca7 d4bd
000001a0: 4279 8b3d b064 f23c e8da e1bd bf1c 17be
000001b0: 4051 36bb b260 c93d 702f fbbd 1ebf fe3d
000001c0: d1d8 8bbd 28fe 6b3d 321a e43d 16e6 d93d
000001d0: 6aa9 983d 0a87 d4bd 90d8 323c c0de 583b
000001e0: dcc2 3b3d 2535 a2bd b4f9 a5bd 5d2e 07be
000001f0: 90f6 893c e4f4 1b3d 3e7e c03d e497 2d3d
00000200: 7b42 973d 6307 73bd 4fed b23b b80a 0f3a
00000210: 21c8 653b 885f a1bc f57c 343c e284 a53d
00000220: c397 be3d 41f1 3c3e 81af 89bd f84f d7bb
00000230: b23b f53b a98c a4bd 6b70 ff10 f739 733d
00000240: c7a9 0a3e 8ac0 d23d 0a7c 613d 6dc0 4a3e
00000250: 6fb0 463c 6cc7 e53d f39a 163d 69a1 babd
00000260: f8d6 63bb 2743 d73d 4829 a03d 2ded 0f3e
00000270: 6835 32be f8d9 573d c059 893c bcc0 ba3d
00000280: d885 a33d 83ff 163e ceb5 efbd 92f9 bb3d
00000290: 7dd3 a33d f894 a43d 9d24 7abd 04e8 1b3d
000002a0: 1987 213e 5394 0a3e 2a6c 0b3e 4701 d83d
000002b0: 015e 963c e01d 4d3d 493e cfbd 4667 1d3e
000002c0: d52e 1abe f9b1 c1bd 0c41 22bd 446a adbd
000002d0: 615f 18be 3c26 0bbe 17bd 84bd c796 663c
000002e0: 98f2 91bd b9e1 883e 540b 283c 6bf1 443e
000002f0: 15d0 e7bc 3689 fdbd 1428 953d afbf e33d
00000300: b61e a1bc ece0 af3c 4520 353e 7cf0 363e
00000310: 5ed3 2f3e 6599 0e38 6c6b 5e2b 9421 053e
00000320: 9cc1 1fbe 461b 1cbe 6bc8 0bbe ca10 18be
00000330: 6568 24be 47ce b284 5f2b 8ebd faf0 04be
00000340: 21a1 d2bc 7dcc bfb2 916e b33d 4412 b4bd
00000350: 68de 0d3d 5d22 9d3c 2ec6 dfbd 01ec 1b3e
00000360: c985 583e 65c1 423c c893 173e 5522 49be
00000370: e856 b13d 7b02 fb2a 2d4a 06bd c875 893d
00000380: 931f 2cbe aa1d 7fbd a798 12be 4829 42bd
00000390: acb2 24bd e323 0ebe 1054 673d 04bf 21bd
000003a0: 390f 2fbe 207c 8dbb 41ec fcbd 2a8f 68bd
000003b0: cecd efbd 9a5a ce3d 387e 45bd 3137 08be
000003c0: d855 c6bc 2f5f 2e3e 7f6f 233e 427f fd3d
000003d0: 2019 893b 21be a9bd d03a bdbd 503d 03bd
000003e0: f251 b1bd ef72 2c3e 2f49 103e 91f3 b9bd
000003f0: d480 6b3d ef4f 143e 00a0 a7b9 c067 af3c
0.16342513 0.13495797 -0.020912975 -0.051432103 0.033435777 -5.07e-43 -0.12902945 0.08372624
-0.15335436 -0.14516096 0.035743516 -0.11688798 0.04571442 0.066788316 0.06904087 -0.069948934
-0.10441879 1.0267225e-11 -0.06277961 -0.14177357 0.22964604 -0.029645376 -0.11991661 0.09447837
-0.06572742 -0.021773936 0.08698217 -0.1075593 0.024737587 -0.022586143 0.16607746 -0.08458648
0.021038199 0.107807815 -0.0014466519 -0.0047534453 0.006795476 -0.028019775 0.09009169 0.017331265
0.11086732 0.044378534 0.07103196 -0.05395646 0.112976424 0.09534493 5.0099587e-21 0.15300411
0.18959764 1.9728739e-06 -0.0976372 0.1662232 -0.13566992 -0.08556763 -0.007438795 -0.17755847
-0.038643874 0.028726203 0.1492928 0.21070649 -0.13942622 1.31776855e-27 0.007717825 0.03533978
-0.14453006 -0.06888895 0.21858399 -0.00043904147 -0.058455482 0.018230755 0.0085986275 -0.035590127
-0.13517073 0.026241297 0.12620518 -0.07169783 -0.0052787377 1.2107554e-09 -0.077432506 -0.12275683
-0.014338007 -0.07945639 -0.002761885 -0.21768373 -0.08718142 0.13726813 -0.06645722 0.14300127
0.046467293 -0.12916082 0.14330015 -0.16081262 0.06430766 -5.4555644e-20 0.16463697 -5.3063986e-26
0.047924593 -0.04950683 -0.08718238 -0.15556785 -0.10828372 -0.15392907 0.13432248 -0.10383567
0.068102375 0.029589027 -0.11028081 -0.1475706 -0.0027819425 0.09832896 -0.12264907 0.124387965
-0.06828464 0.05761543 0.11137809 0.106395885 0.07454188 -0.10377319 0.01091589 0.0033091754
0.04584013 -0.07920293 -0.08104268 -0.1320128 0.016841203 0.038075343 0.09399079 0.042381182
0.07385727 -0.059333216 0.0054604183 0.00054566143 0.0035061913 -0.019698873 0.01101612 0.08081986
0.0930629 0.18451406 -0.06722928 -0.0065708123 0.007483923 -0.08034641 1.0075297e-28 0.05938145
0.13541327 0.1029063 0.055049933 0.19799967 0.012127026 0.11219677 0.036768865 -0.09112818
-0.0034765583 0.10510855 0.07820374 0.14055319 -0.17403185 0.052698106 0.016766429 0.091187924
0.07984513 0.14745907 -0.11704598 0.09178461 0.079993226 0.08036226 -0.061070073 0.038063064
0.15774192 0.13533144 0.1361548 0.10547119 0.018355371 0.05007732 -0.10119302 0.15371427
-0.15056928 -0.09457774 -0.039612815 -0.08467534 -0.14880134 -0.13588804 -0.064813785 0.014074034
-0.07126349 0.26734713 0.010256607 0.19232719 -0.028297463 -0.123796865 0.07283035 0.11120545
-0.019667964 0.021469556 0.17688091 0.17865175 0.17170474 3.3998298e-05 7.901932e-13 0.1300109
-0.156012 -0.15244779 -0.13650672 -0.14850155 -0.16055448 -4.2037035e-36 -0.06941866 -0.1298255
-0.025711598 -2.2328317e-08 0.08761323 -0.087925464 0.03463593 0.019181425 -0.10926472 0.15226747
0.21144785 0.011886929 0.14802468 -0.19642003 0.08659154 4.4588278e-13 -0.032785583 0.06711918
-0.1680892 -0.06228415 -0.14316045 -0.04740265 -0.040209457 -0.13880877 0.056476653 -0.039488807
-0.1709565 -0.0043177754 -0.12349749 -0.056777157 -0.11709176 0.100758746 -0.048216075 -0.13302304
-0.024210855 0.17028497 0.15960501 0.12377788 0.0041839033 -0.08288217 -0.09239733 -0.032040894
-0.08658208 0.16840719 0.14090417 -0.0907966 0.057495907 0.14483617 -0.00031971931 0.021411777

fc_stack_1.6.weight_v f4 [1, 32]
00000000: e7b5 1fbd 770c a83d 3f16 fdbd 43ab 6d9b
00000010: e010 7f3d f83d ff3d c819 f4bd ad02 0080
00000020: 338c b72c 5c7d 0e31 5d5c d499 7973 518e
00000030: 4180 0da2 2cb2 e1bd 0db8 323e 980c 2b3e
00000040: 4958 529f a847 5594 9538 86b7 7f37 593e
00000050: bf00 0000 69e1 373e 9e93 0fbe 3806 e43d
00000060: 2528 413e 35de 0b21 be7f 16be 48e5 823d
00000070: d764 2924 33e6 993d 5f0f 203e 4256 bc17
-0.038991835 0.082055025 -0.12357759 -1.9659518e-22 0.062271953 0.124629915 -0.1191898 -9.6e-43
5.216738e-12 2.0734978e-09 -2.1957591e-23 -2.5816837e-30 -1.917696e-18 -0.11020312 0.17453022 0.16704023
-4.4542258e-20 -1.07678836e-26 -1.6000393e-05 0.21212576 2.68e-43 0.17957081 -0.14021155 0.11133999
0.1886297 4.738912e-19 -0.14697167 0.06391388 3.6731448e-17 0.0751461 0.15630864 1.217099e-24
